…
    "from keras.models import Sequential\n",
    "from keras.wrappers.scikit_learn import KerasClassifier\n",
    "from sklearn.model_selection import GridSearchCV"
   ]
  },
  {
   "cell_type": "code",
   "execution_count": 21,
   "metadata": {},
   "outputs": [
    {
     "name": "stdout",
     "output_type": "stream",
     "text": [
      "_________________________________________________________________\n",
      "Layer (type)                 Output Shape              Param #   \n",
      "=================================================================\n",
      "conv2d_1 (Conv2D)            (None, 224, 224, 16)      208       \n",
      "_________________________________________________________________\n",
      "max_pooling2d_2 (MaxPooling2 (None, 112, 112, 16)      0         \n",
      "_________________________________________________________________\n",
      "batch_normalization_1 (Batch (None, 112, 112, 16)      64        \n",
      "_________________________________________________________________\n",
      "conv2d_2 (Conv2D)            (None, 112, 112, 32)      2080      \n",
      "_________________________________________________________________\n",
      "max_pooling2d_3 (MaxPooling2 (None, 56, 56, 32)        0         \n",
      "_________________________________________________________________\n",
      "batch_normalization_2 (Batch (None, 56, 56, 32)        128       \n",
      "_________________________________________________________________\n",
      "conv2d_3 (Conv2D)            (None, 56, 56, 64)        8256      \n",
      "_________________________________________________________________\n",
      "max_pooling2d_4 (MaxPooling2 (None, 28, 28, 64)        0         \n",
      "_________________________________________________________________\n",
      "batch_normalization_3 (Batch (None, 28, 28, 64)        256       \n",
      "_________________________________________________________________\n",
      "conv2d_4 (Conv2D)            (None, 28, 28, 128)       32896     \n",
      "_________________________________________________________________\n",
      "max_pooling2d_5 (MaxPooling2 (None, 14, 14, 128)       0         \n",
      "_________________________________________________________________\n",
      "batch_normalization_4 (Batch (None, 14, 14, 128)       512       \n",
      "_________________________________________________________________\n",
      "conv2d_5 (Conv2D)            (None, 14, 14, 256)       131328    \n",
      "_________________________________________________________________\n",
      "max_pooling2d_6 (MaxPooling2 (None, 7, 7, 256)         0         \n",
      "_________________________________________________________________\n",
      "batch_normalization_5 (Batch (None, 7, 7, 256)         1024      \n",
      "_________________________________________________________________\n",
      "conv2d_6 (Conv2D)            (None, 7, 7, 512)         524800    \n",
      "_________________________________________________________________\n",
      "max_pooling2d_7 (MaxPooling2 (None, 4, 4, 512)         0         \n",
      "_________________________________________________________________\n",
      "conv2d_7 (Conv2D)            (None, 4, 4, 1024)        2098176   \n",
      "_________________________________________________________________\n",
      "max_pooling2d_8 (MaxPooling2 (None, 2, 2, 1024)        0         \n",
      "_________________________________________________________________\n",
      "dropout_1 (Dropout)          (None, 2, 2, 1024)        0         \n",
      "_________________________________________________________________\n",
      "global_average_pooling2d_1 ( (None, 1024)              0         \n",
      "_________________________________________________________________\n",
      "dense_1 (Dense)              (None, 133)               136325    \n",
      "_________________________________________________________________\n",
      "activation_50 (Activation)   (None, 133)               0         \n",
      "=================================================================\n",
      "Total params: 2,936,053\n",
      "Trainable params: 2,935,061\n",
      "Non-trainable params: 992\n",
      "_________________________________________________________________\n"
     ]
    }
   ],
   "source": [
    "# this net is just to show how complicated the training from scratch is comapred to pre-trained models. THis ia not used in app.\n",
…
